model.pt (torch, 148840 bytes, 8 tensors)

net.layer0.weight f4 [128, 4]
00000000: fc5e adbe fbc8 123f cfa4 95bd a5c7 b93e
00000010: 518e fbbe af78 733e b05c c33e e87a 213f
00000020: 49ed 2fbe 1e09 123e 3c95 5bbf 354e 563e
00000030: 27af 9e3e 5f39 89be d12d 41bf 9d26 df3e
00000040: b271 81be b38d 6cbe 8825 0dbd ec3f 10c0
00000050: 2655 353f 9534 6f3e cc82 713e b67c 8bbd
00000060: c4a1 ff3e 905f d6bc 164a ecbd 9d3a 62bf
00000070: 297f 933e ae69 543e 3459 593f 7df4 0cbd
00000080: 5ce0 a83c a90a 0dbe 2a72 3bbf 05bb e7be
00000090: b876 20be 1c6c f4be c1ea 0b3f f6dd f93e
000000a0: 6aea 0a3e a2ad b03d a1c9 813e a329 46c0
000000b0: 28f3 ebbe a100 fabd 2ef6 ce3e 83b3 a2c0
000000c0: 3e89 16bf 8cb1 e7bd 18e0 8b3e 52d1 3d3f
000000d0: 3986 313e 6293 e63e ae5a 39be 8b53 16bf
000000e0: 0131 03bf 6949 583e 7532 0f3e 5532 cfbe
000000f0: 7f9b 20be 88da 0fbf 3eee cb3e 0653 cdbd
00000100: 5705 513e e4d2 60bd 4d80 08bf 6c2e b4be
00000110: fba3 a2be 7991 b5bc 773b c0b9 0658 22c0
00000120: a786 cbbe 44e2 83bd 87a8 a23d cda9 b83e
00000130: 5321 4e3e 3b3b c63e 221a 68bf 7e9b ac3e
00000140: b21a 97bb 0f63 a73d b4cd 7f3f c9db 563e
00000150: 417c e73e 051f cfbe 7e96 f83e 2a4d 88bd
00000160: 0b99 81be 8575 613d afc5 bb3e 7c85 fa3e
00000170: 5ff3 a4bc eea3 9ebc 7ec4 693c 928d 593c
00000180: c174 1fbf 5a7b 30be e9d7 e5be 48b8 e33e
00000190: 9b17 5f3d 7d61 adbe 79bb f6be 09ce c93e
000001a0: 950d 633e a5a0 96bd f548 ad3e e5c0 873e
000001b0: 6d5d 2f3e 84ec 33bd 3f3b 8a3d 422f a0be
000001c0: 2ca1 563e f90f 7ebd 5014 61be 15f8 9b40
000001d0: d529 c83e 822d f4be b059 d1be 3061 d03e
000001e0: 030c bebe 7d7c 8cbe a9f9 1abf 2234 793e
000001f0: f0ff 083d 924f 893c 8475 013e 75cd 92bf
00000200: 27ba a3bd a055 c1bd cb08 18bd 670f b8bc
00000210: 0b3d a83e 92e2 f5be 7082 923e 52ae 52bf
00000220: 89ca 3f3e 32e5 933e f532 e4be 1104 1840
00000230: 7eb4 873e d3f6 9cbc 0d97 efbe 3852 38bf
00000240: 515e 003f 8a2b bebe 6d2e ea3e bdde 3abf
00000250: ab22 c43e 9a30 abbe 311f 79be 65d9 22bf
00000260: ee58 c33e 48e1 973e f196 91be 8fe5 18bf
00000270: 7aba 3abe 958e fe3d 30e3 4e3f 6309 97be
00000280: dc70 ddbc 35cb 98bd 1300 253d 197f 0d3f
00000290: 4070 e73d 4da9 b63e 1555 243e 5b7b c4be
000002a0: adca 55be bcaa 2e3e e57b b0be 4ee7 dabf
000002b0: c3c0 0e3d b637 c2bd 275d 1e3d 608b 28be
000002c0: 4710 353e fdef c43d 96e2 1dbf b2d1 093f
000002d0: 369b 8c3e 7d85 813e 7182 1c3f fa3f eabc
000002e0: b642 78be da1d ce3e b94c 1d3f b145 043f
000002f0: 6eb8 a5be 184b 5d3e e652 0cbe 805e 28be
00000300: 594a cf3b 6241 7abc 5e70 4ebc a0e5 e0bb
00000310: c5a5 b43d 2efa b2bc 4ae8 55bf 64da 9bbe
00000320: 4c8c 873e 755a dabd 9f49 bebd 1248 b2bf
00000330: 0d22 d73d 46ab 013f addf 97bf 0d34 813d
00000340: d6b2 43bd b7b0 d9bd c6aa 0e3f f7cd 003f
00000350: ea7b e4be ffaf 003e 5b5c 363f 07fc 6fbe
00000360: 4446 a8be e0a6 603e 33dc 123f 9365 e53e
00000370: 1acf 83be 2b70 d63e 1a96 d83d 67d8 dc3d
00000380: 6664 d03e 5b9a 53be 5367 643e 1083 5bc0
00000390: 1421 c53e 0feb 32be f29c 72bb d7a9 babf
000003a0: a504 043e 6da2 adbd 6c12 c9bd 0518 b6be
000003b0: 53bc 323d 321e ab3d 0496 31bf 1baa 023f
000003c0: d364 71bd 8667 4e3e 2293 97bd b0ff 2cc0
000003d0: f8d3 903e fbda f73d 9130 103e e779 6bbe
000003e0: cc49 053f 02e7 97be ff15 04be 9f7e 353f
000003f0: fbe8 e0be 9b83 a1be 76af 823f ffef c63c
-0.3386153 0.5733792 -0.07306825 0.3628513 -0.49132016 0.23776506 0.38156652 0.63078165
-0.17180361 0.1426129 -0.8577459 0.20928271 0.30993006 -0.26801583 -0.75460535 0.43584147
-0.25282055 -0.23100929 -0.03445962 -2.2539015 0.7083305 0.23359902 0.23585051 -0.06810896
0.49928105 -0.026168615 -0.11537568 -0.88370687 0.28807953 0.20743439 0.8490174 -0.03441285
0.020614795 -0.13773598 -0.73221076 -0.45259872 -0.15670288 -0.4773873 0.5465508 0.48802155
0.13565984 0.08626868 0.25349143 -3.0962913 -0.4608395 -0.12207151 0.40422195 -5.084413
-0.58803165 -0.11313161 0.27319407 0.7414752 0.17336358 0.4503432 -0.18100998 -0.58721226
-0.5124665 0.21121754 0.13984092 -0.40468088 -0.15684317 -0.5619283 0.39830202 -0.10025601
0.20412193 -0.05488862 -0.5332077 -0.35191667 -0.31765732 -0.022164093 -0.00036665399 -2.5366225
-0.3975117 -0.06439641 0.079423 0.36067048 0.201299 0.38717064 -0.90664876 0.3371238
-0.0046113366 0.08173191 0.99923253 0.20982279 0.45211986 -0.40453354 0.48552316 -0.06655343
-0.25312075 0.055043716 0.36674258 0.48929965 -0.02013558 -0.019365277 0.014268039 0.013278382
-0.6228753 -0.17234555 -0.4489129 0.44476533 0.05446587 -0.3386344 -0.48189905 0.39415005
0.2217315 -0.07354859 0.33844724 0.26514354 0.17125483 -0.04392673 0.067495815 -0.31286055
0.2095992 -0.06202695 -0.21980405 4.8740335 0.39094415 -0.4769097 -0.4088874 0.40699148
-0.3711854 -0.27438727 -0.605372 0.24336293 0.033447206 0.016761575 0.12642485 -1.146895
-0.0799449 -0.0944016 -0.03711776 -0.022468282 0.32859072 -0.48024422 0.2861514 -0.8229724
0.18729605 0.288858 -0.44570127 2.3752482 0.26504892 -0.019160664 -0.4679493 -0.72000456
0.50143915 -0.37142593 0.45738545 -0.7299612 0.383077 -0.33435518 -0.24328305 -0.6361297
0.38153785 0.29664063 -0.28435472 -0.5972528 -0.18235198 0.12429539 0.8081541 -0.2949935
-0.027031355 -0.07460634 0.040283274 0.5527206 0.11300707 0.3567604 0.16048081 -0.38375363
-0.20878096 0.17057317 -0.34469524 -1.7101839 0.0348518 -0.09483282 0.038663056 -0.16459417
0.1768199 0.09616087 -0.6167387 0.53835595 0.27462167 0.25297156 0.6113654 -0.02859496
-0.24244198 0.4025715 0.61445194 0.5166884 -0.3236727 0.21610677 -0.13703498 -0.16442299
0.0063260016 -0.015274378 -0.012600033 -0.006863311 0.088206805 -0.02184781 -0.8355757 -0.30440056
0.26474226 -0.106617846 -0.09291386 -1.3928244 0.105045415 0.5065197 -1.1865135 0.06308756
-0.047777973 -0.10629409 0.5572933 0.5031428 -0.4462579 0.12567137 0.71234673 -0.23435985
-0.32866108 0.21938658 0.5736725 0.44804057 -0.25743943 0.41882452 0.105755046 0.10783463
0.40701598 -0.2066435 0.2230504 -3.4298744 0.385018 -0.1747248 -0.0037019816 -1.4583081
0.12892397 -0.08478246 -0.09817967 -0.355652 0.04363663 0.08355369 -0.6936953 0.5104081
-0.058934044 0.20156679 -0.0740111 -2.703106 0.2828672 0.12102314 0.14081027 -0.22995721
0.5206573 -0.29668432 -0.12899016 0.70896333 -0.4392775 -0.3154572 1.0209796 0.02428436

net.layer0.bias f4 [128]
00000000: 3ced 04bf 083a fdbd 50bf 6f3e 07f1 f9bd
00000010: f1de d13d 404f 02bf ee01 7abe 140d c7be
00000020: 103b a03e 65ed 0cbe 2ff2 76be 7c8b 4bbe
00000030: 1837 cbbe 65d9 273e ad19 803e 4ea9 a03e
00000040: a7eb f83e a0a9 223d c979 63bd 8868 aebe
00000050: bf03 02be 4f78 f8bd c00b fd3d fab3 8cb7
00000060: 48de d93e 3fe0 fb3d 7a82 38bc d41e 2b3d
00000070: 16a4 da3d b47a 693e 2f1b f93e b13e 79be
00000080: 45ba 103e 31b3 8e3e fd97 ab3e 8643 cf3c
00000090: 00db 763e 403a 1c3f 2b5d 6d3e 6a1f 543d
000000a0: 6184 e9be d7d2 c3be 91dd 3d3e 6eab 9a3d
000000b0: e2bf c4be 2d6c 1abf f151 a1be 8a72 083e
000000c0: bd58 243c 80b2 d33d 7ce1 b03d 074d ccbe
000000d0: d464 fb3d 10ec d63d 2bf6 48be e8ae eebe
000000e0: 493c 29be c5be eb3d 43d9 833e bd33 27be
000000f0: 0c6d fcbd c042 8abe d21b f1bd 8003 853e
00000100: a24f adbd 92cd cd3e 3531 233f a605 d73e
00000110: 5596 c33e e033 ab3e 307f 41be 388d 2d3c
00000120: 3fed 873e 5b29 b53e b15a 8f3e dbf8 a5be
00000130: 2bbe 6bbe ca57 a8be 2e2c 4c3e 2552 d33d
00000140: 3959 103f 1e18 0abf bda7 dabe d164 c2be
00000150: c0d5 2abe 7db9 04be 1206 f23c 03f3 a83d
00000160: 1e62 05bf 4c87 d0bd 6ffa 923e 2341 f0be
00000170: 76d0 723e d108 1b3d d3aa 103d 5b02 f43e
00000180: a32b f8bd e814 afbd 5903 a73e 9c75 a5be
00000190: 2e69 713d 2fef 8c3e 0f0f 5b3e dbc5 1ebf
000001a0: 3259 a2bd 38bd dfbc 83e8 793b f87d 723e
000001b0: 7500 063e 31f1 dd3c 044f 2f3e 3c3b ffbd
000001c0: 797f 193e a739 9d3e a96c b6bd 3b9b bdbe
000001d0: 11eb 733e 12bc 2c3e 76d6 4d3e 0a95 ce3e
000001e0: 2876 063e 615e 1a3e 47ef 1abd 674c 8d3c
000001f0: 2968 4a3e 3c1c 51be d653 e53e 4888 0bbe
-0.5192449 -0.12364584 0.23412824 -0.122041754 0.10247601 -0.50902176 -0.24414799 -0.38877165
0.3129506 -0.13762434 -0.24115823 -0.19877428 -0.3969047 0.16391523 0.2501959 0.3137917
0.48617288 0.03971255 -0.055536065 -0.34064126 -0.12696742 -0.12132322 0.12355757 -1.6773109e-05
0.425524 0.12298631 -0.011261577 0.041777447 0.10675828 0.22800714 0.48653552 -0.24340321
0.14133556 0.27871087 0.33514395 0.025300752 0.2410698 0.6102638 0.23180072 0.05178777
-0.4560881 -0.38246796 0.18541552 0.07552229 -0.38427645 -0.60321313 -0.3150783 0.13324943
0.0100309225 0.103367805 0.08636758 -0.39902517 0.12275091 0.10494244 -0.19625156 -0.46617818
-0.16526903 0.11510996 0.25751695 -0.1632833 -0.123254865 -0.2700405 -0.117728844 0.25979233
-0.084624544 0.401959 0.6374696 0.41996497 0.38200632 0.33438015 -0.18896174 0.010592751
0.26548192 0.35383114 0.2799888 -0.32416424 -0.23021762 -0.32879478 0.19938728 0.10318402
0.5638614 -0.5394305 -0.427061 -0.37967542 -0.16683102 -0.12961383 0.02954391 0.08249476
-0.5210284 -0.10182056 0.2870669 -0.46924695 0.23712334 0.037850205 0.03531916 0.47658047
-0.12117698 -0.085489094 0.32619742 -0.3231629 0.058938198 0.27526233 0.21392463 -0.62020653
-0.07927169 -0.027311906 0.0038132973 0.23680866 0.13086112 0.027092548 0.17119986 -0.1246247
0.14990033 0.30708048 -0.08907444 -0.37032494 0.2382014 0.16868618 0.20101342 0.40348083
0.1313101 0.15075065 -0.03782585 0.017248346 0.19766296 -0.20420927 0.44790524 -0.13626206

net.layer1.weight f4 [128, 128]
00000000: cab3 6ebb f5e7 393e 16a4 ef3d 2308 ffbd
00000010: eb1f 20bd 316e c23c 88e4 46be e879 ea3d
00000020: bf93 bcbd 5e65 2fbf d37f b03d 6cb3 ac3a
00000030: da8b 13bf 1b32 503f 71c8 2f3e a6ce a7be
00000040: f765 663e 63b5 68bd 664e e9bd 2716 043e
00000050: f48d 0fbd 41da 43be d718 5c3e 8f67 8d3d
00000060: 7c52 1ebe 6ae2 48be 3c5e 863d 4265 193e
00000070: b84b 48bd 7073 5cbe f202 0abe a43c 09be
00000080: 7241 623d a8a0 56bd 9acd 713c c1c8 6b3b
00000090: 6036 383e 9c06 6d3e d553 b93e fe4e 1c3e
000000a0: 3374 a7be 02b2 a43d 35d5 a43d 1813 d7bc
000000b0: f3c5 d4bd 7e26 5e3b 29f6 043e e476 c03d
000000c0: 9c48 0c3d 9da7 b3bc 1a10 e7bd 886f 133e
000000d0: d6cc b63d 6c65 ac3b 9ed9 b43c ef51 19bd
000000e0: 4b3f 00be 3673 1e3d 6550 173e 377c c6bb
000000f0: c6b3 813d e525 8ebd 3a3a 64bd 49e6 7dbe
00000100: 31a8 b83e 4537 49bd 574b b2bd e052 21be
00000110: 5a80 a53d df8f 723e bf9d d7be 1baa 9e3c
00000120: ed77 b1bb 8a9d 293c c90b 37be 8a8e 65bd
00000130: 6a11 b03b b7ab e1bc 6a39 953e 95e3 5dbc
00000140: e2b1 e13c 9c9e 013e c049 d53c 20cc 223e
00000150: b850 89bd 8dfa 9abe eece 833c bf41 e03b
00000160: 0c12 f93d 0cf2 babd 3d33 633e 57f4 84be
00000170: 9164 d23e ecdb f2bc de3b da3d 7483 2fbe
00000180: c7da 603e 0513 a4be 054f de3e 36c1 303e
00000190: 8f70 1c3e 601e a9bc c442 66bd e638 b23e
000001a0: 5542 a13d 8286 c1bc 0c95 71be abf9 633e
000001b0: 7231 693d d915 173d 659e 16bd 45a3 3e3d
000001c0: 251d e1be 5d19 2fba 4b7d f53d 9f00 0f3e
000001d0: b96d c7bd 4025 d33d 081d bdbd 28a9 373d
000001e0: 2283 ba3d 416b dc3d f615 183d 8cdb 74bc
000001f0: 2d2e 1a3e d8de 36be 7481 d3bd e47b c1bd
00000200: 826b 7e3e 8fb1 2b3e 0cc5 5bbc e19c 753d
00000210: 3a39 c53c c2d6 9fbc a6ab 38bd e277 853d
00000220: d5ac 6fbe 0b64 633e de88 9fbe 752d 58be
00000230: 9f31 323e 8d18 6ebe 3cb8 fdbd a081 533d
00000240: dcee 76be 934c fcbd aca1 813d 5e74 b13d
00000250: 9702 913d fe74 40bc 6402 98bb f520 44bd
00000260: ce42 323d 098c 73bc 41e2 a8bd c20c 43bd
00000270: b67b be3e 8bc5 6dbd 8254 94bb fe3b 3fbc
00000280: 76b1 9bbd 0bb6 a5be 4746 243d 55c5 2fbe
00000290: 7779 0fbe 8f8f 84be 3339 50be 32ca a1bd
000002a0: 14b7 543e 7c52 1c3e e499 1dbf df64 4e3d
000002b0: 90b9 653d c1af 0d3e 5314 513e f31e b3bd
000002c0: 182f 843b 6967 9bbc e900 5ebe e7e3 d93d
000002d0: f81b 79bd 776a 6cbd 96df 223e 6b70 213e
000002e0: 1081 94bd bafd 16bf 175b 60be 21fc 313e
000002f0: 2b0d 81be 31b7 113b d39e 623e f28a cc3d
00000300: 14d7 30bc d2bc a2bd 0e74 62bd fa53 01be
00000310: 9b6e c1bd 123a 1bbe 11e3 2f3e 5692 5cbd
00000320: 5be0 783e 3397 b2bd 0b31 9f3d 9e33 133d
00000330: 87db 043e 42a8 de3d 6639 4cbe b83f e6bb
00000340: f913 aabe a450 223b e11c 2f3e ee65 c4bd
00000350: 1646 c53d 5d8f e93d 3593 bcbd 21b3 823d
00000360: b9d6 263e 57e6 463d f895 8fbe 8773 6e3e
00000370: fced e3bd 0974 513d 850d 8c3b d39b 21be
00000380: fd47 f33d b7f7 503e 1146 8abe c8ff 4abe
00000390: 68c3 5bbd 0fbd c7bd 7132 9bbd 52f1 4b3e
000003a0: fcb7 66be 118d 3f3f c553 363d 86aa 5abe
000003b0: 1965 c2bd d2af 233e 4cb2 183b dcb5 783c
000003c0: caa8 ef3d 35b4 0ebd 8652 f33e c013 ee3d
000003d0: 7290 eabd 9631 dbbd c879 da3d 73c9 30be
000003e0: 57f1 333c 9303 74bd 89a2 2dbd bfe4 f6be
000003f0: 0e80 9fbd 53e3 2e3e 99cb 4fbe 2bf8 953d
-0.003642308 0.18154891 0.11701219 -0.12452724 -0.03909294 0.023734184 -0.19423115 0.11449033
-0.09207868 -0.6851405 0.086181305 0.001317603 -0.5763527 0.81326455 0.17166306 -0.32774848
0.22499834 -0.05681361 -0.113919064 0.12899075 -0.035047486 -0.19126226 0.2149385 0.06904518
-0.15461153 -0.1961762 0.065609425 0.14980033 -0.048900336 -0.21528411 -0.13477686 -0.13402039
0.055238195 -0.052399307 0.014758492 0.0035977813 0.17989492 0.23147053 0.3619677 0.15264508
-0.3270584 0.08041765 0.080484785 -0.026254222 -0.10389318 0.0033897455 0.12984528 0.093976766
0.034248933 -0.02193051 -0.11282368 0.14398015 0.08925788 0.005261114 0.022076424 -0.037431654
-0.12524144 0.038684092 0.14776762 -0.006057288 0.06333117 -0.069408216 -0.05571959 -0.24794878
0.3606582 -0.049124975 -0.08705776 -0.1575427 0.08081122 0.23687695 -0.42112538 0.019368222
-0.0054159076 0.010352502 -0.1787559 -0.05604414 0.0053731697 -0.0275477 0.29145366 -0.013543029
0.027550641 0.12658161 0.026036143 0.1589818 -0.06704849 -0.3026928 0.016089883 0.006843775
0.12161645 -0.09128198 0.22187515 -0.25967667 0.4109235 -0.029645883 0.1065595 -0.17139989
0.21958457 -0.3204576 0.43419662 0.17261204 0.15277313 -0.020644367 -0.056216016 0.34809035
0.0787398 -0.023623709 -0.23592013 0.2226321 0.05693192 0.03688607 -0.03677215 0.046542425
-0.43967548 -0.00066794996 0.11986788 0.1396508 -0.09737725 0.10309839 -0.09234053 0.044839054
0.09107043 0.107626446 0.03713032 -0.014944922 0.15056677 -0.17858446 -0.103274256 -0.094474584
0.24845698 0.16766952 -0.013413679 0.059964065 0.02407514 -0.019511584 -0.04508557 0.065170065
-0.23405774 0.22206132 -0.3115911 -0.2111109 0.17401741 -0.23251553 -0.123886555 0.051637292
-0.24114555 -0.12319293 0.063296646 0.086647734 0.07080572 -0.011746643 -0.004638957 -0.047882993
0.04352074 -0.01486493 -0.082462795 -0.04761959 0.3720376 -0.05804972 -0.0045266757 -0.011672018
-0.07602207 -0.3236545 0.040106084 -0.1716512 -0.14011179 -0.25890777 -0.2033432 -0.07899894
0.20772964 0.1526584 -0.61562943 0.050389167 0.05608517 0.13836576 0.2041791 -0.087461375
0.0040339343 -0.018970208 -0.21680035 0.10639172 -0.06081769 -0.05771872 0.15905604 0.1576554
-0.07251179 -0.58980906 -0.21909748 0.17381336 -0.2520536 0.0022234435 0.22130899 0.09987439
-0.010793466 -0.07946171 -0.05528646 -0.12629691 -0.094449244 -0.15158871 0.17176463 -0.053850494
0.24304335 -0.08720245 0.07773026 0.035937898 0.12974368 0.108719364 -0.19943771 -0.007026639
-0.33218363 0.0024767304 0.1710086 -0.09589754 0.096325085 0.114042975 -0.09207765 0.063818224
0.16292848 0.048559513 -0.28044105 0.23286258 -0.11129376 0.05113605 0.0042740726 -0.15782098
0.11878965 0.20406996 -0.2700658 -0.19824135 -0.05365315 -0.09752857 -0.0757798 0.19916275
-0.22531122 0.74824625 0.044513483 -0.21354112 -0.09491939 0.15985039 0.0023299633 0.015180077
0.11702116 -0.034839828 0.47523898 0.11624861 -0.11453332 -0.10702817 0.10667759 -0.17264347
0.010982833 -0.05957372 -0.042391334 -0.48221394 -0.07788096 0.17078905 -0.2029251 0.07322725

net.layer1.bias f4 [128]
00000000: 03c0 623e cef2 c5bd c0cf da3e a2ab 3f3d
00000010: 61a8 e4bc e1bb 853d e563 aebd 8c1b b8bc
00000020: f53e 4f3e fc50 863e 2af0 cc3d 21ab 6f3c
00000030: caf0 3cbe 778b 1abe 03f2 063d 9ba1 603d
00000040: da9a 7a3e 86c1 91bd 4ed2 23bd 2da8 b63d
00000050: d338 86bd 5ff5 3fbd 8c94 a63e d985 003d
00000060: 6326 4ebe 5a76 463d abf1 4c3d 7e8d ebbd
00000070: b347 9e3d de19 043e d876 3a3e 0d24 ac3e
00000080: f5bc bb3c 0ec2 953e d6e3 22bd 1a39 a5be
00000090: 8ca3 01bd b7bb 6f3d e0c1 593e 9158 ea3c
000000a0: ec66 5ebe 9575 903d 4945 a43e 1713 df3e
000000b0: ae94 10bd fb62 84bd 3578 723d f57b 4bbe
000000c0: dabd 5bbd 3569 fe3d 7e32 47bd 2ff1 773e
000000d0: fa2d ad3d 71b3 f4bd f4af 773d ef08 323d
000000e0: 500f 123e 1a04 9f3d f87e 883e 7e16 853e
000000f0: e9b2 a8bc b1bf d23c 39a1 a8be bfbd 793d
00000100: ad17 d3be 2f65 6f3b e16d 2dbd 69c0 d13d
00000110: a8a2 11be 2af2 8a3e 100a 99bd cfe9 82ba
00000120: c6d2 8cbe 172e 78bd cc48 36be 7bb2 adbd
00000130: 3be0 89be 1672 75ba 14be 8ebe 632e 78be
00000140: e175 d9bd be09 9abe 29e2 54bd cdd1 333d
00000150: 3c47 e3bc 7256 61bd 6a74 473e 2661 73bd
00000160: b9e1 0bbe 1949 dd3d c8f9 da3d 45f8 57bd
00000170: 7e1b 3abe 814b b0bd 46cd ad3c 649f 423e
00000180: defb 2bbe d123 82be 9b35 48bd 90b9 1f3e
00000190: 8665 93bd 8074 05bd c41f 293e f731 7cbd
000001a0: dc7d 13be 5d2c bcbe 194d cbbc 609f 6a3d
000001b0: 5e73 e13d 1543 cebb 9df8 d5be c21a 1fbe
000001c0: b0cd 4c3d 8002 a23d 43f3 f33d e742 c9bd
000001d0: a617 b1bd 5d5d 4cbd e8e4 6b3e 41cc 8b3e
000001e0: 82f5 643b 19bd f3bc 99d8 893c e9b3 89bd
000001f0: f15c 3e3c 347a 77be fdab 073e c97b 4cbc
0.22143559 -0.09665452 0.42736626 0.04679454 -0.02791232 0.06529976 -0.08515147 -0.022474073
0.2023886 0.2623366 0.10006745 0.014628203 -0.18451229 -0.15092264 0.032945644 0.05484162
0.24473134 -0.0711699 -0.039995484 0.08918796 -0.06553807 -0.046864863 0.32535207 0.031377647
-0.20131831 0.048452713 0.05003516 -0.11501597 0.07728519 0.12900493 0.18209398 0.33621255
0.02291725 0.29249614 -0.039768063 -0.32270128 -0.03165011 0.05852863 0.21265364 0.028606685
-0.21718949 0.07053677 0.3208411 0.43569252 -0.035298042 -0.064641915 0.05919667 -0.19871505
-0.053647853 0.124224104 -0.048632137 0.24213098 0.08456035 -0.11948288 0.060470536 0.04346555
0.14263654 0.07764454 0.2665937 0.25993723 -0.020593124 0.025726171 -0.32935503 0.06097197
-0.41229 0.0036528816 -0.042341117 0.102417774 -0.14222205 0.27137882 -0.074726224 -0.0009987893
-0.27504557 -0.06059083 -0.17801207 -0.08481308 -0.26928887 -0.00093630084 -0.27879393 -0.24236445
-0.10618187 -0.30085558 -0.051973496 0.043901253 -0.027743928 -0.05501408 0.19478002 -0.05941882
-0.13660325 0.10804958 0.10692173 -0.052727003 -0.1817455 -0.08608151 0.021216046 0.19006115
-0.16795298 -0.2541795 -0.048879247 0.1559813 -0.071970984 -0.032581806 0.16516024 -0.061571088
-0.1440348 -0.36752596 -0.024817036 0.057280898 0.11008333 -0.006294618 -0.4179124 -0.15537551
0.050000846 0.07910633 0.11911633 -0.09827214 -0.08647089 -0.049893726 0.2303654 0.2730427
0.0034936373 -0.029753255 0.016826915 -0.06723768 0.011618839 -0.2416771 0.13249202 -0.012480685

net.layer2.weight f4 [128, 128]
00000000: d5e7 483e c42a 0b3e 6c83 583e a31b ca3d
00000010: 6056 03bc ab8f 5cbc b4d2 44be 4311 27be
00000020: aa53 94be 7c1b 49bd e185 42bd 2efe 533d
00000030: daf2 8b3e 6e8c 05be b094 183b 2449 923c
00000040: eb9c 1e3d 65d6 ffbe c76c 0d3d baa1 223f
00000050: de49 7f3b 5eee 80be b2e0 2f3e 8f42 d1be
00000060: 7076 69be 07ba e2bd 63bb 483f 88bc c7bc
00000070: a277 97bd 9d7d 333f 82c3 413e df2e 783e
00000080: f333 d33e aa53 683e 07b6 1e3d 9af9 05be
00000090: eb88 8a3c 3c45 7ebe 1678 223e 5939 87be
000000a0: f5ab 853d 81e3 783e a0d5 6c3e 142a 3a3e
000000b0: 74a7 273f ee94 8ebe 0411 a6bb 3e21 22be
000000c0: c318 e0bd c908 713e dc7f 9c3d 2b3b 3c3d
000000d0: 0886 20bc 92e0 a23c 46b8 c1bd d2db 2ebd
000000e0: ec50 413e 8708 a9be c1f1 603e f9dc 113d
000000f0: b99a aebd 9372 213d a8a3 26be 2000 1abd
00000100: c53e 93be af9b 3abe aac7 c33e 880f dc3c
00000110: db97 893c 4330 253e cb83 803d 8696 b43b
00000120: 78b9 66be 2c15 283e 6aa3 b0be 3760 e73d
00000130: fb0d 18be ba7e 3ebe 7ec7 33be 577d 1cbe
00000140: 8050 c9bd b6dd 80be cf76 a7bc df65 053e
00000150: 91b5 b7be 902e 823e 0dcc f13e ea1f d53c
00000160: 5af5 5ebe 633b d13c 9665 3f3e 89ed 4ebf
00000170: b6d4 3cbe 04fd 6e3d e488 3dba 494c 6c3e
00000180: 4e81 ecbe 7111 88bd 6001 a7bd c194 b73d
00000190: 3b73 cabe c94b 52bd 7775 2f3e a9de e4bd
000001a0: 9b5d 3cbe b1f0 8dbe 5804 b83b 6cf5 d33e
000001b0: 3ae3 b1bd f5a4 823d 00d8 79be c9a2 79be
000001c0: 4366 29bd ea83 c4be e58b 4e3e d537 21bf
000001d0: c6a0 623e 7b41 733c 3a06 413e c1a9 1b3e
000001e0: 764e df3e a359 12be 5c53 89be 6fce a23b
000001f0: 7891 113e af36 c7bb 03b2 953d e282 da3b
00000200: 8727 b2bd 1157 0cbd 46de 54be ad4a 9bbd
00000210: 855b bbbd 0e3b f4bd f67d 843d 6bfc f23c
00000220: 7ace a83c 0bfa 55bd c55e 7fbd e55a f6bb
00000230: f18a 53bd b002 593d e19d c3bd d315 143d
00000240: 57b5 17bd a3c8 473e 5b06 4c3d d2a9 98be
00000250: 7725 f8bc 6e20 153f 90e6 febd 27d1 d23d
00000260: d88b 193e 3e9f 92bd ea78 88be b409 4f3e
00000270: 3655 08be 7a0c 15be b08c e3bd bbf1 0ebe
00000280: a24c 3bbe 72a4 f6bd 9d65 5b3b d693 383e
00000290: 4ddc 823d 7d7a c33c 8ec5 11be c142 793d
000002a0: 27e0 5f3d 7aa5 cfbb b51b 1cbd c5d0 4fbd
000002b0: 9a58 0bbe f506 183e 418c 26bc 3fde 0e3d
000002c0: fe84 163d 436e 14be f84d 6c3d fa3b b4bc
000002d0: 10f5 1abd 7066 a5bb 9d6e 2c3e 371e 0ebd
000002e0: 51c7 94bd 199e 123e faa8 0dbe 7c90 03bc
000002f0: 58a7 953d e79b 563d 9190 213d c6e8 ea3c
00000300: 08d6 523d 2d78 6fbd 7fe0 4bbd 7ccb fbbd
00000310: 9fde 8b3d 65e0 08be 99dd 7d3d 7e91 e43c
00000320: 9724 203e 4f49 9dbd 222d 2c3e 0a86 fbbd
00000330: 5582 883d 57d9 663d 0815 a13d ab66 a93c
00000340: 6af9 c43e 70f4 103e 7cbb 51bd f4d9 b7be
00000350: c322 843e c0e8 e33c a27d 96be 2c35 cc3b
00000360: 38fa 523e de95 d0bd 7cd2 20bd 3c08 943e
00000370: 18a9 f23c 5498 c23d e908 123e 8ee8 21be
00000380: 27c1 7e3e c24c 223e 02ee 08bc a82c a7bc
00000390: 887c 963d ffc7 88bd b6b1 cabd 301f 4d3d
000003a0: 4353 523d 2ef2 633d 30c7 363d 89e7 86bd
000003b0: 223e 823c ede1 153d 6480 dc3d 6102 db3d
000003c0: 3114 e63c 5d94 373e f286 00bd 5342 1d3e
000003d0: a199 d1bd 31c4 b83c 129e e9bd 3723 5fbd
000003e0: 8e69 e5bd c561 e9bd bdef 953d 0e65 493d
000003f0: 0ad7 75bd cd39 9d3d f1a8 15be d012 f53d
0.19619687 0.13590533 0.21143883 0.098685525 -0.008016199 -0.0134619875 -0.19221002 -0.16315179
-0.2897008 -0.049098477 -0.047490958 0.051756077 0.2733372 -0.13041851 0.0023281984 0.017857142
0.038723867 -0.49968258 0.034527566 0.63528025 0.003895394 -0.2518186 0.17175558 -0.40871093
-0.22799087 -0.11070638 0.7841093 -0.02438189 -0.07395865 0.70113546 0.18922237 0.2423663
0.41250572 0.22688165 0.038747814 -0.13083497 0.01691099 -0.24831098 0.15866122 -0.2641094
0.06526939 0.24305536 0.23128366 0.18180114 0.6548989 -0.27848 -0.0050679464 -0.15832993
-0.10942223 0.23538508 0.07641575 0.045954864 -0.009797581 0.019882474 -0.094589755 -0.042690106
0.18878525 -0.33014318 0.21967222 0.035611127 -0.08525605 0.039415907 -0.16273367 -0.037597775
-0.28758827 -0.18223451 0.3823827 0.026862875 0.016796043 0.16131692 0.062751375 0.005511108
-0.22531688 0.16414326 -0.34499675 0.112976484 -0.14849083 -0.1860303 -0.17556569 -0.15282188
-0.09829807 -0.25169152 -0.020442395 0.13027142 -0.35880712 0.2542615 0.4722599 0.026016194
-0.21773282 0.025541013 0.18691096 -0.808312 -0.18440518 0.058346763 -0.0007230176 0.23075975
-0.46192402 -0.06643952 -0.08154559 0.089639194 -0.3954104 -0.051341806 0.17134653 -0.111752816
-0.18395083 -0.27722695 0.005615752 0.4139818 -0.08685918 0.06379119 -0.24398804 -0.24378504
-0.04135729 -0.38381892 0.20170553 -0.6297582 0.22131643 0.014847155 0.18850031 0.15201475
0.43614548 -0.14292006 -0.2682141 0.0049684565 0.14215648 -0.006079517 0.07309344 0.0066684345
-0.086989455 -0.03426272 -0.20787916 -0.07582603 -0.09148315 -0.11925326 0.06469338 0.029661378
0.020606268 -0.052240413 -0.06234624 -0.0075181597 -0.051646177 0.05298108 -0.095515974 0.036153626
-0.037038174 0.1951013 0.04981075 -0.29817063 -0.030291302 0.5825261 -0.1244632 0.10293799
0.14994752 -0.07159279 -0.2665475 0.20218545 -0.13313755 -0.1455554 -0.111108184 -0.139594
-0.18290952 -0.12043084 0.0033477314 0.18025145 0.06389675 0.023862118 -0.14235517 0.060854677
0.054657128 -0.006336865 -0.03811236 -0.050736208 -0.13608018 0.14846404 -0.010165275 0.03487992
0.036747925 -0.14495187 0.057691544 -0.022001255 -0.037831366 -0.005047612 0.1683907 -0.034696784
-0.07264579 0.14318122 -0.1383399 -0.008030053 0.07307309 0.052394774 0.03944451 0.028675448
0.051473647 -0.058464218 -0.049774643 -0.12294671 0.06829571 -0.1336685 0.06197891 0.027901407
0.15638958 -0.07679998 0.16814092 -0.12281425 0.06665484 0.056359615 0.078653395 0.020678839
0.38471538 0.14155746 -0.05120419 -0.35908473 0.2580777 0.027820945 -0.29392725 0.0062319245
0.20603263 -0.10184835 -0.039263234 0.28912532 0.029621646 0.095017105 0.14261211 -0.15811369
0.2487837 0.15849593 -0.008357527 -0.020407036 0.07347971 -0.06678771 -0.09897177 0.05007857
0.051348936 0.055650882 0.044623554 -0.065871306 0.015898768 0.036592413 0.10766676 0.10693813
0.0280858 0.1792769 -0.031378694 0.15357332 -0.102343805 0.022554489 -0.11407103 -0.054476943
-0.112017736 -0.11395601 0.07321117 0.04916864 -0.06001953 0.0767704 -0.14615227 0.11966479

net.layer2.bias f4 [128]
00000000: b4c6 2a3e 5992 2ebe 2bfd eb3d aa62 0dbe
00000010: 8d80 12bc 0d4f e63d d22a b0bd 340f c03d
00000020: 8bdb 18be 1e21 e43d ed7f 93bd 54b9 69be
00000030: aa3b 0f3e 1a95 cc3d 3d33 963e 2e9e 16bd
00000040: 8b68 2b3e 17ff 21bd 69ee 80bc d8c2 933c
00000050: 07c7 6fbe a3d9 f1bd 12fb 3abe 5d1c ad3c
00000060: a2f9 babd 16e7 bdbb 6403 b93d af1d 9abd
00000070: 4df7 a2bd 8f66 fa3d 269d 14be 0b6b ed3d
00000080: 33b8 f4bd 7eb6 27be ca27 203c 20d1 103d
00000090: 1211 5ebc 191f 123d a134 fdbd 6687 babd
000000a0: 71e2 fa3d 9113 7fbd 3641 503d 2885 c83d
000000b0: 6b0f 993c 9339 803c 00a0 f83d 9564 28be
000000c0: a6fa 9ebc 13fd d0bc eb8d 50be 7a55 733b
000000d0: 147b 23be f882 64be d57a 2bbe 2deb 8ebd
000000e0: adb0 a4bd 505a 61bc bd04 a0bd 6b9d 0d3e
000000f0: cfbe 6abe 9961 32be f3be 193d ed81 333e
00000100: 2b9a e93d 8303 103c 8b86 58bc 84bf 643e
00000110: 4c93 413e 4080 e53d 5d9a 0c3e 1db5 cabd
00000120: 54b1 dfbd 1f55 cfbd 6ee6 14bb 3e53 e53d
00000130: e2a6 dfbc 70e4 fabd 2dcb 53bc 59f4 96bd
00000140: 8cba ebbd 6f77 f63b ac49 3c3e 25c8 8dbd
00000150: 8abf aebd a4c2 b53d 4f83 97bb 8800 15be
00000160: f86a 6b3c 581c 403e a42a 01be ad38 81be
00000170: efec 90bd 33b4 633e 31a9 123e 1cd8 a1bd
00000180: 0fa2 6dbe 8505 883d d0a1 993c 8006 bbbc
00000190: 7331 e4bd 8e37 213b 2185 983e 00aa b2bd
000001a0: 4ba5 033e 26b1 4b3e fe86 68bb 94e9 05bd
000001b0: 56b2 95bd a128 ae3d 664c c43d a36f 5b3e
000001c0: 79aa cabc 418b 31bd 7f7c 38be 4eef f3bc
000001d0: 3aa0 e4ba 1c93 b0bd f69e a8bc 9092 cdbd
000001e0: d2ed 58be 0a40 423e 9c9d 1dbe a6be aebe
000001f0: fa77 683e 2f05 9fbd 5aa1 8abe 1d4a c93d
0.16677362 -0.17048015 0.11522897 -0.13807169 -0.008941782 0.112455465 -0.08601917 0.093779
-0.14927499 0.11139129 -0.07202134 -0.22824603 0.13987604 0.09989376 0.29335967 -0.036771946
0.16739099 -0.039549913 -0.015738683 0.018037245 -0.23415767 -0.11809089 -0.18259838 0.021131689
-0.09129645 -0.00579537 0.0903385 -0.07525193 -0.07957325 0.12226593 -0.14513072 0.115926825
-0.11949196 -0.16378209 0.009775111 0.035355687 -0.013553875 0.03567419 -0.12363554 -0.091078565
0.122502215 -0.06227452 0.05084344 0.097910225 0.01868411 0.015652454 0.121398926 -0.16444619
-0.019406628 -0.0255113 -0.20366637 0.0037129805 -0.1596492 -0.22315586 -0.16746075 -0.0697845
-0.08041511 -0.013754442 -0.07813404 0.13829581 -0.2292435 -0.17420043 0.03753562 0.17530032
0.11406358 0.0087899 -0.013215671 0.22338682 0.18903846 0.11206102 0.1373076 -0.09897826
-0.109224945 -0.101236574 -0.0022720355 0.11197518 -0.027301256 -0.12250602 -0.012926859 -0.07370824
-0.1151019 0.007521562 0.18387479 -0.0692294 -0.08532627 0.088750154 -0.0046238075 -0.14550984
0.014368765 0.18760812 -0.12613922 -0.25238553 -0.070764415 0.2223671 0.14322354 -0.07902548
-0.23206352 0.06641678 0.018753916 -0.022830248 -0.11142244 0.0024599764 0.2978907 -0.08723831
0.12856023 0.19891796 -0.0035480852 -0.03269346 -0.073094055 0.08503843 0.09584884 0.21429305
-0.02473949 -0.043345693 -0.18016241 -0.029777195 -0.0017442771 -0.08621809 -0.020583611 -0.1003772
-0.21184471 0.18969741 -0.15392154 -0.34129828 0.22702017 -0.077646606 -0.27076226 0.09828589

net.layer3.weight f4 [22, 128]
00000000: 75db 82bd 94d7 853d f292 f0bd b591 b9bd
00000010: ffe3 8fbc 5ecb 703d 9f85 073e 54e7 6a3e
00000020: 182a 373e c0f5 133d eb1f c43d 9672 123e
00000030: 3e90 05be 8650 18be a525 5cbd f033 15be
00000040: 6f4c f0bc 72e1 48be 924b 913b 513a 9dbd
00000050: 821a 14be c1a2 abbd 82fb 033e 5b04 4dbe
00000060: 321f 0d3e 6abb 4ebd b7c7 15be 563a 573c
00000070: a4ca 1e3e 96df e43e 0c27 fc3c 1c1f 04be
00000080: fed9 0c3f cecb d83d 3e1b b73e 7978 043e
00000090: e222 c6bd 7b03 bd3d 7c93 9d3d fde0 af3d
000000a0: 4bca b8bd b9f6 493c f908 6bbe 0aac 8cbc
000000b0: de85 fdbd 0b82 833d cb9d c3bd 8755 713d
000000c0: 18e0 1e3e 90c1 823e bf67 e03d fec3 123e
000000d0: 7b58 133e 6e73 98be ac4e 223e c607 193d
000000e0: 5179 343e 6ba0 6abd 45d4 ff3c ec82 4bbd
000000f0: d240 023d 555f 5f3c cd3c 463d 3c23 42bd
00000100: 2a75 35bd e91d 0f3d 0edf dcbc 31b2 1bbd
00000110: 426c e0bd 1ad2 adbd 907d cdbd 5d20 b63d
00000120: 78bd 0cbd ca6b 8a3d 425d 79bd 412c 08be
00000130: e7b6 31be 0a3d 73bd 6d6d 763d 7c7a 213e
00000140: 01db 373e 9433 b8bd c949 fcbd 9169 a23d
00000150: cc56 243e 0591 173e 047f 2cbe 39ee 133e
00000160: 4074 c6bd 36b0 e53c c318 46be e383 c5bc
00000170: 8836 f6bd 5825 61be 7e70 b4bd e498 b8bf
00000180: 9947 913d 2d68 083d 41ff 143e 313f 413d
00000190: 0c90 83bb 07a3 1e3e 7b58 bd3d e51a 96be
000001a0: ba06 b9be 608d 00be 04e1 053d b284 f43d
000001b0: 6b14 3abc e1fa f83c 90e9 47bc 3b17 c33c
000001c0: 0eaa 803e cd00 b9b8 0bc2 a33d b826 b93e
000001d0: 27c6 3b3e eea5 293e 1896 483e fb64 f7bd
000001e0: a28e 0a3e 4f01 1c3f 59b6 e23d 3da6 693a
000001f0: 2e5d 16bf bb3c c63b a9c4 d2bc 8a5d 943c
00000200: c990 42bd 759f eebb 0f4b a43c 41a0 8c3e
00000210: c5d6 d6bd c3f7 33bd bc3e 16bd e19b b0be
00000220: e7f5 a13b 2f14 43b9 fb7a 28bd 1ab9 97bd
00000230: bc1b b33d 26d9 643d 9307 c5bd 6815 3e3d
00000240: e951 6dbc 619a 89bb ff9d 3d3b e860 8d3d
00000250: 4dbc 163d 92a9 723d 69f0 79bd 2803 9b3d
00000260: 907b 97be fd39 14bc 056d df3d a107 01bd
00000270: dd53 b9bd 7f96 07bf 98bf 2d3d 60f4 973d
00000280: d8ce 7f3d 643f f3bd 4503 b8be 5961 c0bd
00000290: 3ab3 ab3d caef aebd 0b45 93bc 0148 b93d
000002a0: 520c 7c3d 0846 34bd 8dc8 573b 71f7 9cbc
000002b0: 61f6 993d 6f3e 91bd 6184 1d3e 6278 c43c
000002c0: 608f 9abd 9892 313d 16eb 55bd 9292 40be
000002d0: 87bb babe 5317 563d 8ff4 25bd 6d0a 7dbd
000002e0: a312 99bd 4f9a a0bc cc32 f03b d21a fd3d
000002f0: 4a7d 863c ac32 c7bc a6d0 ea3c 3d39 cf3d
00000300: 383c db3d 0d8c 92bd 02cf b83d f8ae 343d
00000310: 3ba6 153d b568 fd3d cc8c db3c a889 f3bd
00000320: c451 8cbd c31e 32bd aab2 f93d 8ed0 973d
00000330: 3632 38bc 2bdc c33d 5c74 1abe ef4c 49bd
00000340: b2ab f6bd bf43 983c 4f23 7cbb a6d6 c2bc
00000350: e45a d43c dede 29be d1ec 143c a1a8 2abd
00000360: c7c1 9a3e 6102 96bd 0a72 88be f3a4 9fbd
00000370: c335 c23c 009e 033f cd97 513d b4e4 7f3c
00000380: 1572 0dbd 24b7 36be d76e d23c 07cc c9bc
00000390: 80bc ef3c a357 823d 628f dcbb 8dad 633e
000003a0: cd51 0e3d 7634 b33d 6f65 0cbb 7b85 dabd
000003b0: e352 da3b 453d 3cbc 5fb2 943d 0e09 313d
000003c0: 9577 96be 45fd ba3c ab95 ecbd bc67 fb3b
000003d0: 9253 923b 8aa5 13bd b736 93be 7e75 c23d
000003e0: da6e 5d3b dc7e edbc bd20 6ebd 8117 07be
000003f0: a813 37bd eeb2 09bc 8c1a 9c3a 0359 103e
-0.06389514 0.06535259 -0.117467776 -0.090609945 -0.017564772 0.058787696 0.13234566 0.22939807
0.17887151 0.036123037 0.095764 0.14301524 -0.13043305 -0.14874467 -0.053746838 -0.14570594
-0.029333321 -0.1961725 0.0044340575 -0.076771386 -0.14463237 -0.08380652 0.12888911 -0.20021193
0.13781431 -0.0504717 -0.14626966 0.013136467 0.15506989 0.44701833 0.030780338 -0.12902492
0.5502013 0.10585748 0.35762972 0.12936582 -0.09674622 0.092291795 0.07694146 0.08587835
-0.09022959 0.01232689 -0.22952642 -0.017171878 -0.12379049 0.06421288 -0.09551581 0.058919456
0.15515172 0.255383 0.10957288 0.14332578 0.14389221 -0.29775566 0.15850323 0.03736093
0.17624404 -0.057281893 0.031229148 -0.049685404 0.0318001 0.013633569 0.048397828 -0.047396883
-0.04430119 0.034940634 -0.02696183 -0.038011733 -0.109581485 -0.08487339 -0.10033715 0.088928916
-0.03436038 0.067588404 -0.060879953 -0.13298132 -0.17354928 -0.059384383 0.06016295 0.1576938
0.17954637 -0.08994213 -0.12318761 0.079302914 0.16048735 0.14801414 -0.16845328 0.14446343
-0.09690142 0.028038125 -0.19345383 -0.02411074 -0.1202212 -0.21986902 -0.08810519 -1.4421659
0.07093734 0.033302475 0.14550497 0.047179405 -0.0040149745 0.15491877 0.09245392 -0.29317394
-0.36137944 -0.1255393 0.032685295 0.11939372 -0.011357407 0.030393066 -0.012201682 0.023814788
0.2512974 -8.8216366e-05 0.07995995 0.36162353 0.18337308 0.16567203 0.19588506 -0.12079807
0.13530973 0.60939497 0.11069936 0.0008913016 -0.5873593 0.00604972 -0.02572854 0.01811101
-0.04750136 -0.0072821924 0.020055322 0.27466014 -0.10490183 -0.043937456 -0.036680922 -0.34493926
0.004942644 -0.00018604168 -0.04113291 -0.07408352 0.08745524 0.05587115 -0.09620585 0.046407133
-0.014484861 -0.0041993116 0.0028933284 0.06903249 0.03680067 0.059243746 -0.06102029 0.075689614
-0.29586458 -0.009047029 0.10909466 -0.031501416 -0.09049199 -0.52964014 0.042419046 0.07419658
0.06245312 -0.11877325 -0.35939994 -0.093935676 0.08383794 -0.0854183 -0.017977258 0.09046937
0.061535187 -0.0440121 0.0032925934 -0.019160958 0.07517696 -0.070919864 0.1538253 0.023983184
-0.07546878 0.043352693 -0.05222615 -0.18805912 -0.36471197 0.052268337 -0.040516432 -0.06177752
-0.07474258 -0.01960483 0.007330274 0.12358631 0.016417164 -0.024316154 0.028663944 0.10118339
0.10704845 -0.07155619 0.090238586 0.044112176 0.036535483 0.12373487 0.026800536 -0.1189149
-0.06851533 -0.043486368 0.121922806 0.074128255 -0.01124244 0.09563478 -0.1508345 -0.049145635
-0.12044467 0.018586991 -0.0038473194 -0.023783993 0.025922246 -0.16588923 0.009089665 -0.041664723
0.30225965 -0.073246725 -0.26649505 -0.077951334 0.023707276 0.51412964 0.05117016 0.015618492
-0.034532625 -0.178433 0.025687618 -0.02463342 0.029264688 0.06364372 -0.0067309598 0.22234173
0.03474598 0.087502405 -0.0021422764 -0.10669991 0.006662713 -0.011489217 0.07260584 0.043221526
-0.2938811 0.022825846 -0.115519844 0.007672278 0.0044655288 -0.036046542 -0.28752682 0.09495066
0.0033787997 -0.028991155 -0.05813669 -0.1319256 -0.04469648 -0.008404477 0.0011909767 0.14096455

net.layer3.bias f4 [22]
00000000: e169 0ebe 849d ed3d b09b bfbd a8ec 003d
00000010: 88bd ddbd 887b 833a 19f6 82bd 6609 d1bc
00000020: 5107 6ebd dce2 0239 a8e5 4bbd f0fc a53b
00000030: 546b 74bc 153f f5bc 2b8e 86bd cf00 44bc
00000040: 87f0 0abc 6981 1fbd 0722 c4bd c6aa 12be
00000050: a547 00be f50d 75bd
-0.13907577 0.11602309 -0.09355867 0.031475693 -0.10827166 0.0010031322 -0.06394596 -0.025517177
-0.058112446 0.00012482278 -0.049779564 0.005065553 -0.014918167 -0.029937306 -0.06570085 -0.011963083
-0.008480198 -0.038941775 -0.09576803 -0.14322957 -0.1252733 -0.059827764
